dcgan.pt (torch, 285925 bytes, 55 tensors)

generator.0.weight f4 [64, 16]
0	0xbf7e674f	-0.99376386
1	0xbec2d7ac	-0.3805517
2	0x3f076367	0.5288605
3	0xbdb8c28f	-0.09021484
4	0xbf518257	-0.8183951
5	0xbf067c36	-0.5253328
6	0x3e9d2ea7	0.30699655
7	0x3ee94d91	0.4556699
8	0x3e1ba3b1	0.15199162
9	0x3e898cfc	0.26865375
10	0x3f26c64e	0.6514634
11	0xbf769d4e	-0.9633378
12	0x3dc22be1	0.094810255
13	0xbfc1ec6e	-1.5150278
14	0x3e35e070	0.17761397
15	0xbc686dcd	-0.014186335
16	0xbe595e1f	-0.2122731
17	0xbe96cace	-0.29451603
18	0x3e047d74	0.12938482
19	0x3e7c885f	0.24661396
20	0x3d8a5af1	0.06755627
21	0xbe3ec635	-0.18630297
22	0x3c83cb7d	0.016088242
23	0x3e87045f	0.26370522
24	0xbe9d3bf4	-0.30709803
25	0x3e5dea69	0.21671452
26	0x3df643be	0.120246395
27	0xbc440480	-0.0119639635
28	0xbe10a7e1	-0.1412654
29	0x3c7149db	0.014727081
30	0xbea59f01	-0.32347873
31	0xbc14c572	-0.009080278
32	0x3fc8f6cd	1.5700318
33	0x3f2bfbf6	0.67181337
34	0xbf6193c1	-0.8811608
35	0x3d1b829e	0.037966363
36	0x3f9369ac	1.1516623
37	0x3f5eea06	0.8707584
38	0xbf019dc9	-0.50631386
39	0xbf4e8638	-0.8067355
40	0xbdef8e95	-0.11697117
41	0xbefe49ca	-0.49665672
42	0xbf7b4fa6	-0.9816841
43	0x3fb56094	1.4170098
44	0xbd49a2ef	-0.04922765
45	0x400dd677	2.216215
46	0xbe33cb07	-0.17557918
47	0x3d2ac1f0	0.04168886
48	0x3f2d70cf	0.6775026
49	0xbcb82f2d	-0.022483433
50	0xbe8da5f8	-0.27665687
51	0x3eed7fc8	0.46386552
52	0x3f72e7da	0.9488503
53	0x3e7405a4	0.23830277
54	0xbeb5c550	-0.355021
55	0xbbf818c7	-0.007571313
56	0xbf1653ed	-0.5872181
57	0x3cb50560	0.02209729
58	0xbed19b8a	-0.4093898
59	0x3f5a822a	0.85354865
60	0xbea89c0e	-0.3293156
61	0x3fc2a7dc	1.5207477
62	0xbf1c2e99	-0.610086
63	0xbba3e658	-0.0050018243
64	0x3fb90d16	1.4457119
65	0x3ee0d5dd	0.43913165
66	0xbf42456e	-0.7588719
67	0x3e8905e6	0.26762313
68	0x3f9fc6b1	1.2482511
69	0x3f3b9410	0.732728
70	0xbf032b3a	-0.51237833
71	0xbf0413cb	-0.515927
72	0xbebfad97	-0.37437126
73	0xbeb8e25c	-0.36110198
74	0xbf5e3b89	-0.86809593
75	0x3fb893fe	1.4420164
76	0xbe66007a	-0.2246112
77	0x40194b1a	2.3952088
78	0xbedfeba4	-0.43734467
79	0x3d4985cf	0.049199875
80	0x3f3fb2ed	0.74882394
81	0xbe9af1fc	-0.30262744
82	0xbea25b45	-0.31710258
83	0x3f7a50a9	0.9777933
84	0x3fc678f2	1.550566
85	0x3e784dba	0.242484
86	0xbf00bd49	-0.50288826
87	0x3eaf1d43	0.34202012
88	0xbf96ad20	-1.1771584
89	0x3e7d4c5c	0.2473616
90	0xbef12576	-0.47098893
91	0x3f969a9c	1.1765933
92	0xbf1becd7	-0.60908264
93	0x401486db	2.320731
94	0xbf953756	-1.1657512
95	0xbdc8fc04	-0.09813693
96	0x3fcdf4fa	1.6090386
97	0x3f765dbb	0.9623677
98	0xbf6aaf61	-0.91673857
99	0xbebcb9e9	-0.36860588
100	0x3f2f14c7	0.6839108
101	0x3f6ad64a	0.9173323
102	0xbeb93a16	-0.3617713
103	0xbf9171a2	-1.1362803
104	0x3ee048a9	0.43805435
105	0xbf2eb655	-0.68246967
106	0xbf801f98	-1.0009642
107	0x3f9ad2d3	1.2095588
108	0x3e163499	0.14668502
109	0x3fdf461f	1.7443274
110	0x3eb85d1d	0.3600854
111	0x3dbc46d8	0.091932
112	0x3ec5ef40	0.38659096
113	0xbedc96bb	-0.43083748
114	0xbdaefc7b	-0.085442506
115	0x3f4fdda3	0.81197566
116	0x3f8b72a8	1.0894365
117	0x3bf49b2f	0.0074647884
118	0xbebcb89d	-0.368596
119	0x3efc7374	0.49306834
120	0xbf818e9d	-1.0121647
121	0x3e9a8aff	0.3018417
122	0xbe2505a9	-0.1611544
123	0x3f442828	0.76623774
124	0xbf0c5d17	-0.54829544
125	0x3fbfc69e	1.4982488
126	0xbf7ff18b	-0.9997794
127	0xbd390f01	-0.045180324
128	0x3fdc6b0a	1.7220166
129	0x3f9acc4d	1.2093598
130	0xbf823369	-1.0171939
131	0xbf1941b8	-0.59865904
132	0x3f0418d3	0.5160038
133	0x3f87d9b1	1.0613309
134	0xbeacb33e	-0.337305
135	0xbfb6c702	-1.4279482
136	0x3f31a6ee	0.6939534
137	0xbf63b86a	-0.8895327
138	0xbf8e7409	-1.1129161
139	0x3f96b752	1.1774695
140	0x3eafb110	0.34314775
141	0x3fce1377	1.609969
142	0x3f20b39c	0.6277406
143	0x3db1e1ee	0.08685671
144	0x4000487c	2.004424
145	0x3f45e539	0.7730289
146	0xbf878481	-1.0587312
147	0x3e27ab67	0.16373979
148	0x3fc8360c	1.5641494
149	0x3f849acb	1.0359739
150	0xbf280d41	-0.65645224
151	0xbf71e206	-0.9448551
152	0xbe8c0f63	-0.2735549
153	0xbf10b684	-0.56528497
154	0xbfa59439	-1.2935859
155	0x3ff1f747	1.8903588
156	0xbe4163cc	-0.18885726
157	0x40435ce4	3.0525446
158	0xbeb76fe2	-0.35827547
159	0x3b2ebf60	0.0026664361
160	0xc007bdda	-2.1209626
161	0xbf91bc32	-1.1385558
162	0x3f9b3c75	1.2127825
163	0x3e8934d6	0.26798123
164	0xbfa012c6	-1.2505729
165	0xbf9848b2	-1.1897185
166	0x3f20d7a2	0.6282903
167	0x3f9f5e59	1.2450668
168	0xbe3cd3e4	-0.18440205
169	0x3f4e54c9	0.8059812
170	0x3faa9f70	1.3329906
171	0xbfe1d8ec	-1.7644324
172	0xbda565dc	-0.08076069
173	0xc02e0c32	-2.7194943
174	0xbe04f16c	-0.1298272
175	0xbd2d3f25	-0.042296547
176	0xbfc53a94	-1.5408502
177	0xbf079f86	-0.5297779
178	0x3f4cb49a	0.79963076
179	0xbe5e3bcb	-0.21702497
180	0xbfab369c	-1.337604
181	0xbf4eef74	-0.80834126
182	0x3f0df576	0.5545267
183	0x3f221577	0.63314
184	0x3eb98384	0.3623315
185	0x3eb5b12a	0.35486728
186	0x3f7b145d	0.98077947
187	0xbfc03ab1	-1.5017911
188	0x3e5d12ae	0.21589157
189	0xc01d3afc	-2.4567251
190	0x3ed1149f	0.40836045
191	0x3c228d32	0.009921359
192	0x3d2d2a9a	0.042276956
193	0xbf3bfaf3	-0.73429793
194	0x3dd80a36	0.105488226
195	0x3f86f38c	1.0543075
196	0x3f8eee7a	1.1166527
197	0xbe225875	-0.15854056
198	0xbea6b6c0	-0.32561302
199	0x3f4488c5	0.76771194
200	0xbfa1626b	-1.260816
201	0x3efc561f	0.49284455
202	0x3bb7b2bf	0.005606025
203	0x3f23c704	0.6397555
204	0xbf2c334e	-0.67265785
205	0x3fb5edc6	1.4213188
206	0xbf9e4fa2	-1.2368052
207	0xbdb2c49a	-0.08728905
208	0x3ed3e92d	0.41388837
209	0x3ed612d5	0.41811243
210	0xbe944d12	-0.2896505
211	0xbeaf99cb	-0.34297022
212	0xbdb16614	-0.08662048
213	0x3e9a2303	0.30104837
214	0xbc00829b	-0.007843639
215	0xbef46eaf	-0.47740695
216	0x3ed5d991	0.41767552
217	0xbe968d88	-0.29404855
218	0xbe88bba3	-0.26705655
219	0x3e221186	0.15826997
220	0x3e65a73b	0.22427075
221	0x3dfd7ffc	0.12377927
222	0x3ec0ea27	0.37678644
223	0x3ce9af61	0.02852601
224	0x3f0573f4	0.52130055
225	0x3e9636c3	0.29338655
226	0xbe96b4fd	-0.29434958
227	0xbe6fbaf8	-0.23411167
228	0x3e74f53a	0.23921672
229	0x3eb2935a	0.34878045
230	0xbe1061b9	-0.14099778
231	0xbeb91eab	-0.3615621
232	0x3d9ea648	0.077465594
233	0xbe6076af	-0.21920274
234	0xbeb9eb0d	-0.36312142
235	0x3edd59f0	0.4323268
236	0x3dce6661	0.10078121
237	0x3f179fc1	0.5922814
238	0x3e24a790	0.16079545
239	0x3cd5eea9	0.026114779
240	0xbf6e5f3b	-0.9311406
241	0xbe45718a	-0.19281593
242	0x3eee9fad	0.46606198
243	0xbe980a01	-0.29695132
244	0xbf760de6	-0.9611496
245	0xbed4e006	-0.41577166
246	0x3ebac88a	0.36481124
247	0x3e7488ed	0.23880358
248	0x3ee64959	0.44977835
249	0x3e2f4e3f	0.17119692
250	0x3f1596dd	0.58433324
251	0xbf847f73	-1.0351394
252	0x3e5bc3dc	0.21461433
253	0xbfe1f7fa	-1.7653801
254	0x3ee548be	0.4478206
255	0x3c6d9fbf	0.0145034185

generator.0.bias f4 [64]
0	0x3fb6aac7	1.4270867
1	0xc057d469	-3.3723395
2	0x3f267ab1	0.6503096
3	0x3f940ab0	1.1565762
4	0x3fd459d9	1.6589919
5	0xbed32495	-0.41238847
6	0xbe99e7b1	-0.3005958
7	0x3e90a740	0.28252602
8	0xbfa736dd	-1.3063618
9	0xbf59a227	-0.8501305
10	0xbd80f05c	-0.06295845
11	0xbe2f2f70	-0.1710794
12	0xbf288e88	-0.65842485
13	0x3fa306be	1.2736433
14	0xc08bc225	-4.3674493
15	0x403bc8b8	2.934126
16	0xbf3341fe	-0.7002257
17	0xbea828d7	-0.32843658
18	0x3f676000	0.9038086
19	0xbfbc7ded	-1.472593
20	0xbf60a756	-0.87755334
21	0xbf861b78	-1.0477133
22	0x3ea91d70	0.33030272
23	0xbda03121	-0.078218706
24	0xbe68efe5	-0.22747763
25	0x3e91e808	0.28497338
26	0xbeb05b51	-0.3444467
27	0xbe50d874	-0.2039507
28	0xbf83e79b	-1.0305055
29	0xbf857bcd	-1.0428406
30	0xbe69cd2a	-0.2283217
31	0xbf5e6802	-0.86877453
32	0xbe133b08	-0.14377987
33	0x3d13ff09	0.036131892
34	0xbf49a113	-0.78761405
35	0xbe01701a	-0.1264042
36	0xbf0b30bb	-0.5437123
37	0x3d82f3b3	0.06394138
38	0xbed09ed0	-0.40746164
39	0xbf742acb	-0.95377797
40	0xbfb5edd9	-1.421321
41	0x3f6a7b6f	0.91594595
42	0x3fe40329	1.7813464
43	0x3f647cdd	0.89253026
44	0x3eb890ac	0.36047876
45	0xbf8ef7f7	-1.1169423
46	0x40048597	2.0706537
47	0x3f55ffcb	0.83593434
48	0xbfa70e9d	-1.3051335
49	0x3fef701d	1.8706089
50	0x3e69b4a3	0.22822814
51	0x3f073ef2	0.5283042
52	0x3f98f210	1.1948872
53	0x3fc7365c	1.5563464
54	0x3da1f6fa	0.07908435
55	0xbf9bfb8e	-1.2186143
56	0xbdc45c95	-0.09587971
57	0xbed7c439	-0.42141894
58	0x40038133	2.0547607
59	0x3fa571e4	1.2925382
60	0x3f5d9abd	0.86564237
61	0xbe344fcf	-0.1760857
62	0xbf4115ad	-0.754237
63	0xc0783614	-3.8783007

generator.3.weight f4 [64, 32, 4, 4]
0	0x3fce4cad	1.611715
1	0x3fc350b0	1.5258999
2	0x3fe64b47	1.7991723
3	0x3fec9e9d	1.8485905
4	0x404abc50	3.1677437
5	0x3fd55edb	1.6669573
6	0xbd40df5f	-0.047088023
7	0x3ecc30ca	0.39880973
8	0x3f24b5f2	0.64340127
9	0x4011c277	2.2774942
10	0x3fab481d	1.3381382
11	0x401014d0	2.2512703
12	0x3f6e3ea1	0.93064314
13	0x4027a140	2.619217
14	0x3fe8ee2b	1.8197683
15	0x4065ddef	3.5916708
16	0x405ae805	3.4204113
17	0x3fd3c05a	1.6543076
18	0x4008686c	2.1313734
19	0x3f67111f	0.902605
20	0x3f529790	0.82262516
21	0xbdec4f8f	-0.11538612
22	0x3f49027a	0.78519404
23	0xbf2c0431	-0.67193896
24	0x3e9ecce8	0.31015706
25	0xc02bae3e	-2.68251
26	0x400421aa	2.0645547
27	0x3ed4dd86	0.4157526
28	0xbf5fb01e	-0.8737811
29	0xbf3ee354	-0.74565625
30	0xbff9404c	-1.9472747
31	0xbfa04599	-1.252124
32	0x3f530949	0.82436043
33	0x407c7d64	3.9451532
34	0x40241f7e	2.5644221
35	0x3fc813e2	1.5631068
36	0x40451c75	3.0798619
37	0x402e5d81	2.724457
38	0x400625e6	2.0960631
39	0x3ff1d246	1.8892295
40	0x3fe12058	1.7587996
41	0x400b0ae5	2.17254
42	0x3fc0d0f2	1.5063765
43	0xbfce02eb	-1.609464
44	0xbfdfa1a0	-1.7471199
45	0xbf0ba739	-0.54552037
46	0xbfa85a97	-1.3152646
47	0x3f035372	0.512992
48	0x3efe5923	0.4967738
49	0x3f2261fc	0.6343076
50	0x3ff55078	1.9165182
51	0x406c68af	3.6938894
52	0x3fdda256	1.7315166
53	0x40504400	3.2541504
54	0x3faa6962	1.331341
55	0x4034d79f	2.8256605
56	0x3ff27841	1.8942949
57	0xbfc03bf6	-1.5018299
58	0x3fd6ba69	1.6775638
59	0xbedeba91	-0.43501714
60	0xbf919915	-1.1374842
61	0x3f747cdd	0.95503026
62	0x3fbb1aae	1.4617517
63	0x3fdbe061	1.717785
64	0x3f0ac79e	0.5421084
65	0x40441062	3.0635
66	0x400b30fe	2.1748652
67	0x3d39b124	0.04533495
68	0xbe84d367	-0.25942537
69	0x3f97f7ff	1.1872557
70	0x3f970638	1.1798773
71	0xbf204626	-0.6260704
72	0xbf1e2d90	-0.6178827
73	0xbdf61973	-0.12016573
74	0x4025ef92	2.5927472
75	0x40701109	3.7510397
76	0xbf45ac0d	-0.77215654
77	0xbf1dcc4a	-0.61639845
78	0x3fd4d2bb	1.662681
79	0x3f141b58	0.57854223
80	0x3fbc2172	1.4697707
81	0x3f9916d1	1.1960088
82	0x3fafd499	1.3736755
83	0x3f5f0d1d	0.87129384
84	0xbe9a816e	-0.30176872
85	0x3f7b2f30	0.9811888
86	0x3ffa4776	1.9553058
87	0x401908ec	2.3911695
88	0x3eaf2ede	0.34215444
89	0x3fa2af95	1.2709833
90	0x40247330	2.5695305
91	0x3f8a7584	1.0817113
92	0x3e401d42	0.18761161
93	0x3fa5fd31	1.2967893
94	0x3f86ec52	1.0540869
95	0x3f2df110	0.6794596
96	0x3ec479a0	0.38374043
97	0x3fe4f7c8	1.7888117
98	0x3f6601fa	0.89846766
99	0x3dee1e1e	0.11626838
100	0x3f87acb2	1.0599577
101	0x3ec32e36	0.38121194
102	0x3ee2cc52	0.4429651
103	0xbf195206	-0.5989078
104	0xbf179e65	-0.59226066
105	0x3ff9a241	1.9502641
106	0x3f35f692	0.7107936
107	0x3f50a181	0.81496435
108	0x3dd00f67	0.10159188
109	0x3e327efa	0.1743125
110	0x3f2242ed	0.6338337
111	0xbf70ca21	-0.94058424
112	0x3fb3723a	1.4019234
113	0x3f8455ad	1.0338646
114	0x3f7cf844	0.98816323
115	0x3f960823	1.1721233
116	0xbf91cc94	-1.1390557
117	0x3fb253b6	1.3931797
118	0xbf9bd7c2	-1.2175219
119	0x3e9ce657	0.30644485
120	0x3fda512a	1.7056019
121	0x3fda7997	1.7068356
122	0x3fcdc467	1.6075562
123	0x40ab25a0	5.348343
124	0x40047076	2.069364
125	0x3f9a1532	1.2037718
126	0x400b9285	2.1808178
127	0x4029a7f9	2.6508772
128	0x3f83653b	1.0265268
129	0x3f10fc0c	0.56634593
130	0x401cde94	2.451085
131	0x3fa73e2c	1.3065848
132	0x403a2824	2.9087
133	0x3d8b06b8	0.06788391
134	0x3fe7ed0c	1.8119216
135	0x3ff68600	1.9259644
136	0x3fc59269	1.5435306
137	0x3f0f75b3	0.5603897
138	0x3febcac1	1.842125
139	0x3ff85ef8	1.9403982
140	0x3de58b7f	0.112082474
141	0x3dc1b984	0.094592124
142	0x3ec5df9d	0.38647166
143	0x3fac778b	1.3473982
144	0x3fd283bb	1.6446451
145	0x3fba745c	1.456676
146	0x3f31e778	0.6949382
147	0x3f432df1	0.76241976
148	0x3fb1b638	1.3883734
149	0x3fa4ccc2	1.2874987
150	0xbf2885b8	-0.6582904
151	0xbffd5437	-1.9791325
152	0x3ca9a999	0.020710753
153	0x3f97ad9f	1.184986
154	0xbd3cc59d	-0.046086896
155	0x3f98ee3e	1.1947706
156	0xbd507124	-0.05088915
157	0x3f51d2d8	0.8196235
158	0x40194276	2.3946815
159	0x3f8be776	1.0930011
160	0x403121af	2.767681
161	0x40888014	4.2656345
162	0xbe25a421	-0.16175891
163	0x3eede47b	0.4646338
164	0x3fc40290	1.5313282
165	0x3f9cb11d	1.2241551
166	0x3e7e966b	0.24862067
167	0x40422cd6	3.0339866
168	0x3fc22532	1.5167601
169	0xbf305d9a	-0.68892825
170	0xbffe27b6	-1.9855869
171	0xbfe3373f	-1.7751235
172	0x3e7953a8	0.24348319
173	0x40189951	2.3843577
174	0xbef42187	-0.4768183
175	0x406805ac	3.6253462
176	0x40171b40	2.3610382
177	0x3eebda60	0.46065044
178	0x3f9a52a7	1.2056473
179	0x3fd5a8ea	1.6692173
180	0xbf9131df	-1.1343344
181	0x3eea628d	0.45778313
182	0x3efd4e3d	0.49473754
183	0x3f6c921e	0.9241046
184	0x3dbb10e0	0.09134078
185	0x3f28cba1	0.65935713
186	0x3f920f1b	1.141086
187	0x3fed6c77	1.8548726
188	0x3fa543bb	1.2911295
189	0x3f7e61b4	0.99367833
190	0x3f315a4e	0.6927842
191	0x4008de39	2.1385634
192	0x3ff52498	1.9151793
193	0x3ef67a4b	0.48140177
194	0x3ed39070	0.41321135
195	0x3fc80d5d	1.5629078
196	0x3f92b900	1.1462708
197	0x3edd5c25	0.43234363
198	0xc0107fb5	-2.2577946
199	0xbfcb672b	-1.5890859
200	0x3fff505b	1.9946398
201	0x3f062438	0.52399015
202	0xc025fb60	-2.5934677
203	0xbf1ffcb7	-0.6249499
204	0x3ff30c40	1.8988113
205	0x3ea1e544	0.31620228
206	0xbe8ab99d	-0.27094737
207	0xbfcd9f33	-1.6064209
208	0x404ed86e	3.2319598
209	0x4008f14e	2.139728
210	0x3fa982cf	1.3243045
211	0x400e1ede	2.220634
212	0x3f8cceb0	1.1000576
213	0x40811372	4.0336237
214	0x405aaa87	3.4166582
215	0x404a6386	3.1623244
216	0x3ecc357c	0.39884555
217	0x3fd8c616	1.6935451
218	0xc07a33f1	-3.9094203
219	0xc05d9edc	-3.462821
220	0x3fc1cdde	1.5140951
221	0xbfa4b6bf	-1.286827
222	0xbfd82661	-1.6886712
223	0xc0298ed7	-2.6493433
224	0x405d26da	3.4554963
225	0x3fa40d10	1.2816486
226	0x3fb9f938	1.452918
227	0x3fc1f6dc	1.515346
228	0x4047d910	3.1226234
229	0x3fed72ea	1.8550694
230	0x3f54108a	0.82837737
231	0x3e9f9217	0.31166145
232	0x4005af2a	2.0888162
233	0x3f5192dd	0.8186472
234	0x40564c7d	3.3484185
235	0xbfb631d3	-1.4233955
236	0x3fd25f34	1.6435304
237	0x3e5bf1e6	0.21478996
238	0x3e41edbf	0.18938349
239	0x3eda2344	0.4260503
240	0x3fbb4022	1.4628947
241	0x40269843	2.6030433
242	0x3f61b413	0.88165396
243	0x3fd624e4	1.6730008
244	0x3d8895fb	0.066692315
245	0x3fb2c9c9	1.396783
246	0x3f8fc7ea	1.1232884
247	0x3f2d54fe	0.6770781
248	0x3f59910c	0.8498695
249	0x3fb608e3	1.4221462
250	0x4091b1b7	4.5529437
251	0x3daf9d79	0.085749574
252	0x40870856	4.2197676
253	0x4027528b	2.614413
254	0x407d73c9	3.960192
255	0x3fb1c552	1.3888342

generator.3.bias f4 [32]
0	0xc10bd4ad	-8.739423
1	0xc008f1d2	-2.1397595
2	0x40b20626	5.5632505
3	0x3fc19596	1.5123775
4	0xbfa8da15	-1.3191553
5	0x40f0897a	7.516782
6	0xc08c30eb	-4.3809714
7	0x4049d9cf	3.153919
8	0x405a13fa	3.4074693
9	0x40b3a314	5.613657
10	0xbf89c7e5	-1.0764128
11	0x4028e82f	2.6391714
12	0x40b8d44c	5.775915
13	0x410b8f4a	8.722483
14	0x3f2b6b06	0.6696018
15	0x40bb3b47	5.850986
16	0x40d1ceff	6.556518
17	0x3f94326d	1.1577889
18	0xbfbc6950	-1.4719639
19	0xc0d0364a	-6.506627
20	0x3f700235	0.9375337
21	0xbfe2277c	-1.76683
22	0x40d51d82	6.659852
23	0xbe47d6b7	-0.19515501
24	0x40bef301	5.9671636
25	0xbfa2e602	-1.2726443
26	0xc0970eca	-4.7205553
27	0xbf9d3a9d	-1.2283512
28	0xc023d2e4	-2.5597467
29	0x3fee1800	1.8601074
30	0xbed0fb70	-0.40816832
31	0x411b1abb	9.694026

generator.5.weight f4 [32]
0	0x40061be4	2.0954523
1	0x3f899ae2	1.0750391
2	0x3fde4639	1.736518
3	0x404d1663	3.2044914
4	0x3feaf6c0	1.8356552
5	0x40575c88	3.3650227
6	0x400f71b7	2.2413156
7	0x3feb39cc	1.8377013
8	0x401b0cf6	2.422666
9	0x404a572c	3.1615705
10	0x3fa4cf1b	1.2875704
11	0x40642050	3.5644722
12	0x3fff5242	1.9946978
13	0x3fd9a08f	1.7002124
14	0x3f8d379e	1.1032598
15	0x3fae1495	1.3600031
16	0x3f75eb45	0.9606212
17	0x3fd6c040	1.677742
18	0x3feb0a3c	1.8362498
19	0x3fd3cbf8	1.6546621
20	0x403e07d1	2.969227
21	0x3f7aa2e1	0.97904783
22	0x401d8754	2.4613848
23	0x40284331	2.629101
24	0x4045eef7	3.0927103
25	0x3fae20f9	1.3603812
26	0x3f5ebf5a	0.8701073
27	0x3fa09d55	1.2548014
28	0x40a605a5	5.188189
29	0x3fa91b47	1.3211449
30	0x40052c4b	2.0808284
31	0x4003fcec	2.0623121

generator.5.bias f4 [32]
0	0x3f9687d7	1.1760205
1	0x3f60b9b5	0.87783366
2	0x3f32edeb	0.69894284
3	0x4001ff71	2.031216
4	0x3fe5c22b	1.794988
5	0x4000b265	2.0108883
6	0x3fa18cca	1.262109
7	0x3f8fe306	1.1241157
8	0x3f9db064	1.2319455
9	0x3fd2bfe8	1.6464815
10	0x3fba8e8b	1.4574751
11	0x400d4e7b	2.207915
12	0x3eaf81d1	0.3427873
13	0x3f422b5d	0.7584742
14	0x3daa930d	0.08328829
15	0x3ea8bb82	0.32955557
16	0x3f09da9e	0.5384921
17	0x3f701d38	0.93794584
18	0x3f4c6af8	0.7985072
19	0x3fc2590f	1.5183429
20	0x3feca51c	1.8487887
21	0x3f924585	1.1427466
22	0x3f9bf3ac	1.2183738
23	0x3fbb02fd	1.4610287
24	0x3f07931e	0.5295886
25	0x3f4f732d	0.8103512
26	0x3f615458	0.88019323
27	0x3f296c2a	0.6618067
28	0x404305e4	3.0472345
29	0x3f44d2cf	0.7688417
30	0x3fd25af8	1.6434011
31	0x3ddda1bd	0.10821865

generator.5.running_mean f4 [32]
0	0x425c8e44	55.13893
1	0x426d7a36	59.369347
2	0x428b2298	69.567566
3	0x42481a01	50.025394
4	0x428baf32	69.84218
5	0x42139ee9	36.905186
6	0x420155d8	32.33383
7	0x423fe78b	47.976116
8	0x4220d343	40.20631
9	0x41b15292	22.165318
10	0x423678fa	45.61814
11	0x4207b828	33.92984
12	0x41ec4cca	29.537495
13	0x4263fd02	56.997078
14	0x424e540b	51.582073
15	0x428e9fae	71.311874
16	0x421bed12	38.981514
17	0x41d70c64	26.88105
18	0x42844e72	66.15321
19	0x422050b6	40.07882
20	0x421da54e	39.41143
21	0x42258b7f	41.386227
22	0x41d77475	26.931864
23	0x41c6b2da	24.83733
24	0x41f794b4	30.947609
25	0x42466158	49.595062
26	0x421b16e5	38.772358
27	0x42529b89	52.65189
28	0x4179d2e1	15.613984
29	0x425b52d6	54.830894
30	0x423cd0ed	47.20403
31	0x42312baa	44.29264

generator.5.running_var f4 [32]
0	0x45811373	4130.431
1	0x45886215	4364.2603
2	0x459076aa	4622.833
3	0x452d44b6	2772.2944
4	0x459379bd	4719.2173
5	0x44b98be1	1484.3712
6	0x4504c4e4	2124.3057
7	0x450e6cbf	2278.7966
8	0x4508d94b	2189.5808
9	0x446e5a98	953.4155
10	0x4571c847	3868.5173
11	0x44b80835	1472.2565
12	0x449c2de0	1249.4336
13	0x458b9db4	4467.713
14	0x4547a05f	3194.0232
15	0x458f459d	4584.7017
16	0x454271ab	3111.1042
17	0x44f7021e	1976.0662
18	0x4558f8e3	3471.5554
19	0x455d9bfb	3545.7488
20	0x44e7e003	1855.0004
21	0x451321ce	2354.1128
22	0x449f90a2	1276.5198
23	0x44b8b03a	1477.5071
24	0x4471cb68	967.1782
25	0x4533514b	2869.0808
26	0x45500e4e	3328.894
27	0x453c1033	3009.0125
28	0x43f46724	488.8058
29	0x45456c24	3158.7588
30	0x4533e1ab	2878.1042
31	0x44b133b0	1417.6152

generator.6.weight f4 [32, 16, 3, 3]
0	0xbf629c02	-0.885193
1	0xc0655fd0	-3.583973
2	0xbfc5b797	-1.5446652
3	0xc0801a79	-4.0032315
4	0xbfa9fb42	-1.3279803
5	0x3dea75df	0.114482634
6	0xbf2b48b2	-0.669078
7	0x3f296e86	0.6618427
8	0xbe0e51e6	-0.1389843
9	0x3fa20fd3	1.2661079
10	0xbe9f4da1	-0.31113914
11	0xbf6660af	-0.8999128
12	0x3bebefdf	0.0072002257
13	0x3e19ddf7	0.15026079
14	0x3fc87417	1.5660428
15	0x402e76c7	2.7259996
16	0x4078856a	3.883143
17	0x404f51ed	3.2393754
18	0x3eeed524	0.46646988
19	0xbf8f907b	-1.1215967
20	0x3f471563	0.7776701
21	0xbfec494a	-1.8459866
22	0xc056d722	-3.3568807
23	0xbf267877	-0.65027565
24	0xbf5e86ec	-0.86924624
25	0xbeb48d74	-0.3526417
26	0xbf1b3379	-0.60625416
27	0x3e2dbb9e	0.16966102
28	0xbf52e952	-0.8238727
29	0xbb68251b	-0.0035422507
30	0x3ec9ca07	0.39411947
31	0x3f9b0865	1.2111937
32	0x3f713017	0.94214004
33	0x3dfc2811	0.123123296
34	0x3fe16bd5	1.7611033
35	0x3fc488a7	1.5354203
36	0x3f405637	0.75131553
37	0xbeb5f0fa	-0.35535413
38	0xbbb75c83	-0.005595745
39	0x3fb13e78	1.3847189
40	0x3f22dd14	0.6361859
41	0xbf5cd919	-0.86268765
42	0xbdb9f54c	-0.0907999
43	0xbe8a9c1b	-0.27072224
44	0xbf3fa8d3	-0.7486698
45	0x3e06b248	0.13153946
46	0xbff7dbe5	-1.9363981
47	0xc0113e1c	-2.2694159
48	0xbe8d4583	-0.27592096
49	0x3eb8f929	0.36127594
50	0x3d93d834	0.07218972
51	0xbf0bf9cc	-0.54678035
52	0x3e2f92f9	0.1714591
53	0x3ef1a550	0.47196436
54	0xbfae2166	-1.3603942
55	0xc04e7279	-3.2257369
56	0xc03cf7d7	-2.952627
57	0xc065471a	-3.5824647
58	0xbfd74603	-1.6818241
59	0xbfc9ff0a	-1.5780957
60	0xbf32e357	-0.69878143
61	0xbf334029	-0.70019776
62	0xbfdac7ab	-1.7092184
63	0xbf3a154b	-0.7268874
64	0x3f57280f	0.840455
65	0xbf967a62	-1.1756098
66	0xc06d8e71	-3.711819
67	0x400ec5fb	2.2308338
68	0x3f249e16	0.6430372
69	0xbf841644	-1.0319295
70	0xbebbcd55	-0.36680093
71	0xbf99760a	-1.1989148
72	0xbfb7528c	-1.4322066
73	0xbfababb1	-1.3411771
74	0xbf284c59	-0.657415
75	0xbf8d9c1e	-1.1063268
76	0x3e1319ba	0.14365283
77	0xbf27d7ea	-0.65563834
78	0xbfa1113a	-1.2583382
79	0x3f5473e6	0.82989347
80	0x3e0fbde2	0.14037278
81	0xbf83892a	-1.0276234
82	0xbfa0cd1b	-1.2562593
83	0x3ea213b9	0.31655672
84	0x3f53d703	0.82749957
85	0x3eb6ce22	0.35704142
86	0x40363b3f	2.847366
87	0xbf4c19c1	-0.797268
88	0xc00d231e	-2.2052684
89	0x403eb1d2	2.9796033
90	0x3f2915f9	0.6604915
91	0xbecb4fa3	-0.39709195
92	0x3f12e63a	0.5738255
93	0xbea95a5f	-0.3307676
94	0x3e93f4d4	0.28897727
95	0x3feba747	1.8410424
96	0xbe07a3f2	-0.13246134
97	0xc01d55fa	-2.4583726
98	0x3f035493	0.51300925
99	0xbfeb72b1	-1.8394376
100	0xbf80a6b6	-1.0050876
101	0xbefd9f42	-0.49535567
102	0xbfaa5633	-1.3307556
103	0xc01005c0	-2.250351
104	0xbf7006e9	-0.93760544
105	0x3f9faa08	1.2473764
106	0x3f7991e1	0.9748822
107	0xbeb85852	-0.36004883
108	0xbea84640	-0.32866096
109	0xbfce488d	-1.6115891
110	0xbfa14203	-1.259827
111	0x3f3aab4c	0.7291763
112	0x3f564f03	0.8371431
113	0xbf489c98	-0.78363943
114	0x3f035232	0.51297295
115	0x3fb07ca0	1.3788033
116	0xbf5c0cf7	-0.8595728
117	0xbf864821	-1.0490762
118	0xbf6ed82f	-0.9329862
119	0x3fc704b8	1.5548315
120	0xbec0bdc8	-0.37644792
121	0xc081c9e6	-4.055896
122	0x3fa225ca	1.2667782
123	0xc0400c8c	-3.0007658
124	0xbf9913cd	-1.1959168
125	0xbf012dc7	-0.50460476
126	0x3e9a0598	0.30082393
127	0x40479297	3.1183221
128	0xbdfa5854	-0.122238785
129	0xbf395b60	-0.7240505
130	0xbe8f5159	-0.2799175
131	0xbfb85457	-1.4400738
132	0x3e82e059	0.2556179
133	0xc00d0930	-2.2036858
134	0x3f170333	0.58989257
135	0xbeb46d2a	-0.35239536
136	0xbd2b1808	-0.041770965
137	0xbe866bc7	-0.26254103
138	0x3fbe20a5	1.4853712
139	0xc0399d3f	-2.9002225
140	0xbf93b475	-1.1539446
141	0x3dff8b67	0.12477761
142	0xc014edb9	-2.3270094
143	0xc03ddc0c	-2.9665556
144	0x400e33ae	2.2219043
145	0x405db10a	3.4639306
146	0x40638a5e	3.5553203
147	0x3f798e94	0.9748318
148	0x40494907	3.1450822
149	0x3ed2f10a	0.41199523
150	0x3ddb40fc	0.10705754
151	0x3f2d3dea	0.676726
152	0xbe4c8831	-0.19973828
153	0xbf57b527	-0.8426079
154	0xbf002e40	-0.5007057
155	0xbf8d6451	-1.1046239
156	0x3fdbe949	1.7180568
157	0xbefcc384	-0.49367917
158	0xbf415392	-0.75518143
159	0x3fc0798e	1.5037096
160	0x3fe96a6b	1.8235601
161	0x3f06edab	0.527064
162	0x3d6f49b6	0.058419906
163	0x3df7884b	0.12086543
164	0xbebde7e3	-0.37090978
165	0xc0cf2185	-6.4728417
166	0xbe92a1e7	-0.28639147
167	0xc0643528	-3.5657444
168	0xbf969a83	-1.1765903
169	0xc004217b	-2.0645435
170	0xbfa26154	-1.2685952
171	0x3f4f679f	0.8101749
172	0x3fd7b44f	1.6851901
173	0xbf191ba3	-0.59807795
174	0x3ee1910c	0.44055974
175	0xbeb48380	-0.35256577
176	0xbe7af844	-0.24508768
177	0x3f225829	0.6341577
178	0xbeb3b6bb	-0.3510035
179	0x3f730884	0.9493487
180	0xbfd7936b	-1.6841863
181	0xbf548f81	-0.8303147
182	0xbeaa35f8	-0.332443
183	0xbf7f7957	-0.99794525
184	0xbf485013	-0.78247184
185	0xbc96eb9d	-0.018422896
186	0x3ec582f8	0.38576484
187	0xbee810ea	-0.45325404
188	0xbf1c09ed	-0.60952646
189	0xbe5dfc9f	-0.21678399
190	0x3f991f72	1.1962721
191	0xc00638d5	-2.0972188
192	0x3fc03846	1.5017173
193	0x3ff234e6	1.8922393
194	0x401e271d	2.4711373
195	0xbf68d1d8	-0.90945196
196	0x3fb82848	1.4387293
197	0x403ab58b	2.9173305
198	0x3faba0db	1.3408464
199	0x4023a25f	2.5567853
200	0x3ebfe9a4	0.3748294
201	0xc00676ec	-2.1010084
202	0xbf67f3e6	-0.90606534
203	0xc037a69b	-2.8695438
204	0x3f741080	0.95337677
205	0xbfcd3c45	-1.6034018
206	0xbed9b751	-0.42522672
207	0xbe56a3d9	-0.2096094
208	0x400009de	2.0006022
209	0x3f25fab6	0.6483568
210	0xbe6d9e32	-0.23204878
211	0x3fb8bb08	1.4432077
212	0xbf2d0cd6	-0.6759771
213	0xbe9e17ef	-0.30877635
214	0xbf57c656	-0.8428701
215	0x3f82a8b2	1.0207732
216	0xbfc012cc	-1.5005736
217	0xbf400c60	-0.7501888
218	0x3f0d9b75	0.55315334
219	0x3f0590cb	0.5217406
220	0x3de5e239	0.11224789
221	0xbf1de9f0	-0.61685085
222	0xbfc36792	-1.5265982
223	0x3e2f9426	0.17146358
224	0xbe01d804	-0.1268006
225	0xbf1ba36f	-0.60796255
226	0x3ed65251	0.41859677
227	0xc04105a9	-3.0159705
228	0x3f88c0c6	1.068383
229	0xbeec5a93	-0.46162853
230	0xbf94a73d	-1.1613537
231	0x3edecab6	0.4351403
232	0xbee9114b	-0.45521006
233	0xbf5edb17	-0.87053055
234	0xbf7236ab	-0.94614667
235	0x3fd07d0f	1.6288165
236	0xbf60ca3c	-0.87808585
237	0x3f481c9b	0.7816865
238	0xc005911d	-2.086982
239	0x3eec3d10	0.46140337
240	0xc01cac83	-2.4480293
241	0xbfda92fc	-1.7076106
242	0xbf523f25	-0.821276
243	0xbf582f5d	-0.8444727
244	0x4018b158	2.3858242
245	0xbfda19e2	-1.7039149
246	0x3f8987d6	1.0744579
247	0x400bf563	2.1868522
248	0xbfcbece8	-1.5931673
249	0x3fa908d3	1.3205818
250	0x3f8c6f99	1.0971557
251	0x3d72ed54	0.059308365
252	0x3fa7fdfd	1.3124386
253	0xbf0ae669	-0.5425783
254	0xbf1cd1b7	-0.612575
255	0xbfebe6c1	-1.8429796

generator.6.bias f4 [16]
0	0xc05378d1	-3.304249
1	0xc0d9e401	-6.8090825
2	0xbfdba03d	-1.7158276
3	0xc0cc0a80	-6.3762817
4	0xc05580a6	-3.335977
5	0x40b47e20	5.640396
6	0xbf32e0fb	-0.6987454
7	0x40570fa4	3.3603296
8	0x409acf6a	4.837819
9	0x4001bb81	2.0270693
10	0x3fb97e71	1.4491712
11	0xc0284fd3	-2.629872
12	0x3f359875	0.70935756
13	0xbd9af4d2	-0.07566227
14	0x3f1338a7	0.5750832
15	0x3fc8464f	1.5646456

generator.8.weight f4 [16]
0	0x400ddb7c	2.2165213
1	0x3ff909c8	1.945611
2	0x3f4d54b9	0.802074
3	0x3fe5fa84	1.7967076
4	0x3ff094bb	1.8795389
5	0x40288ed5	2.6337178
6	0x40615e8a	3.5213952
7	0x4002cc59	2.0437224
8	0x404be633	3.1859252
9	0x3fbfcf99	1.4985229
10	0x3fe435f0	1.782896
11	0x4005597a	2.0835862
12	0x400c3bb6	2.1911445
13	0x3fbf3ad0	1.4939823
14	0x4000290e	2.0025058
15	0x3fb142ea	1.3848546

generator.8.bias f4 [16]
0	0xbf988321	-1.1915017
1	0x3e968f63	0.2940627
2	0xbdffebe8	-0.124961674
3	0xbf9ba9ce	-1.2161195
4	0xbcfa35ae	-0.030543175
5	0x3fba02e4	1.4532132
6	0xc0437b7a	-3.0544114
7	0xbf36f89b	-0.7147309
8	0x3ff3be0d	1.9042374
9	0x3e046920	0.12930727
10	0xbfea4e7e	-1.8305204
11	0xbffc8189	-1.9727031
12	0xbe853ee4	-0.26024544
13	0x3f278b99	0.65447384
14	0xbf060200	-0.523468
15	0x3ef155ff	0.47135922

generator.8.running_mean f4 [16]
0	0xc0b2183c	-5.5654583
1	0x3fc42c98	1.5326109
2	0x3f447fec	0.76757693
3	0xc0991da4	-4.7848682
4	0xbecb2585	-0.39677063
5	0x418b121f	17.383848
6	0xc0e1b046	-7.0527678
7	0x405faef8	3.4950542
8	0x4109cae1	8.612031
9	0x408e34a2	4.443925
10	0xc03aec59	-2.9206755
11	0xc0c409fb	-6.1262183
12	0xbe7a632e	-0.24451897
13	0x3f817ab5	1.0115572
14	0x4023ce0f	2.5594518
15	0x40eda4c9	7.4263654

generator.8.running_var f4 [16]
0	0x428e7cda	71.24385
1	0x438a12f4	276.14807
2	0x431814a8	152.08069
3	0x422b572f	42.83514
4	0x43105e9c	144.36957
5	0x44001d02	512.45325
6	0x426a8ccd	58.6375
7	0x4339e09f	185.87743
8	0x43aea460	349.28418
9	0x436588a1	229.5337
10	0x429a8ffd	77.28123
11	0x42ac1c4b	86.05526
12	0x43252720	165.15283
13	0x433f161c	191.08636
14	0x437466a9	244.40102
15	0x4386e54a	269.79132

generator.9.weight f4 [16, 8, 3, 3]
0	0x40243887	2.5659502
1	0xbec17545	-0.37784782
2	0xbe4793fb	-0.19490044
3	0x3fceed16	1.6166103
4	0x408311eb	4.0959373
5	0xbf7ba2f3	-0.98295516
6	0x40549d37	3.3220956
7	0x3f4c06ed	0.7969807
8	0x3fe54499	1.7911559
9	0x4004decf	2.0760992
10	0xbf420478	-0.7578807
11	0x3fbf3a77	1.4939717
12	0xbd4ad7b8	-0.04952213
13	0x3e588514	0.21144515
14	0x3f11c924	0.5694754
15	0x3f99f733	1.2028564
16	0xbfcfb04e	-1.6225679
17	0x3fb2d64f	1.3971652
18	0x3f619824	0.88122773
19	0xbf829483	-1.0201572
20	0x3ee07066	0.43835753
21	0xbdfb6aba	-0.12276216
22	0xc01e00b8	-2.4687939
23	0xbdb8ad1f	-0.09017395
24	0x3e090007	0.13378917
25	0xc00fb2fb	-2.245299
26	0xbb657e68	-0.003501797
27	0x3fb213b5	1.3912264
28	0x3ff0e734	1.8820558
29	0x3f5e768a	0.86899626
30	0x400cf667	2.2025392
31	0x401a7c87	2.4138505
32	0x3e9ae6f9	0.30254343
33	0xbe8324b1	-0.2561393
34	0x3e901097	0.28137657
35	0xbf8aa880	-1.0832672
36	0xbfe76b7f	-1.807968
37	0xbed0899b	-0.40729985
38	0xbfcc6b7c	-1.5970302
39	0x3f20bbcb	0.6278655
40	0x3fb1d77b	1.3893884
41	0x40596c22	3.397225
42	0x3fccc298	1.5996885
43	0x40537f9b	3.3046634
44	0x402fa477	2.7444131
45	0x3f962cd3	1.1732429
46	0xbe703e6e	-0.23461315
47	0xbebbfd43	-0.3671666
48	0x40036272	2.0528836
49	0x3febf5a3	1.8434337
50	0x400223b0	2.0334282
51	0x3f5ff6ef	0.87486166
52	0x3f16222d	0.586459
53	0x3ffabcfb	1.9588922
54	0x3e52b467	0.2057663
55	0x3f467342	0.7751962
56	0x3eeeea36	0.46663064
57	0x4089a63f	4.3015437
58	0x40685fa8	3.6308384
59	0xbf9d0591	-1.2267324
60	0x3f504a1f	0.813631
61	0x4027ceae	2.6219897
62	0x40078d03	2.1179817
63	0x3f0c6fc7	0.5485806
64	0xbddd53ab	-0.10806974
65	0xbf679640	-0.9046364
66	0x3f9d9cd1	1.2313482
67	0xbe408c73	-0.18803577
68	0x3f172529	0.59041077
69	0x3f3ccede	0.73753154
70	0xbfa75d24	-1.3075299
71	0xbca2f2ad	-0.019891107
72	0xbfb0828f	-1.3789843
73	0xc0349a0d	-2.8219025
74	0xbf3b11a1	-0.73073775
75	0xbf3c2943	-0.7350046
76	0xc02182b2	-2.523602
77	0xc07fbd7b	-3.99594
78	0xbf3a7c01	-0.72845465
79	0xbeb2ae7b	-0.34898743
80	0x40195f47	2.3964403
81	0xbf464181	-0.774437
82	0xbf7a97b8	-0.97887754
83	0xbc6ce63a	-0.014459187
84	0x3e9fb14c	0.31189954
85	0xbea031d3	-0.31288013
86	0x3ea5da28	0.32393003
87	0xbfbaa2c1	-1.4580919
88	0xbfcfef49	-1.6244899
89	0xbfc3cd09	-1.5296947
90	0xbd79060c	-0.060796782
91	0x3fc93a98	1.5721006
92	0x3fafd646	1.3737266
93	0xbcb7616c	-0.022385322
94	0x3f425898	0.75916433
95	0x3f711316	0.9416975
96	0xbf3a128d	-0.72684556
97	0xbfbc60ab	-1.4717001
98	0xbe2786f0	-0.16360068
99	0xbf40499f	-0.75112337
100	0xbf1ea3c2	-0.61968625
101	0x3ebb6d59	0.36606863
102	0xbff4da5d	-1.9129139
103	0xbd6510d3	-0.055924248
104	0x3f55b8a9	0.83484894
105	0x400ddaff	2.2164915
106	0x401cc816	2.4497123
107	0x3fa40ced	1.2816445
108	0x3e9153bd	0.283842
109	0xbf70e449	-0.94098336
110	0xbf9af0f3	-1.2104782
111	0xbfc2454d	-1.5177399
112	0xbfcfdf1a	-1.623996
113	0xc00b884c	-2.180194
114	0x40795e63	3.896386
115	0x3f71fcb9	0.9452625
116	0x40493165	3.1436398
117	0x3ed817a3	0.42205533
118	0xbf9c7312	-1.2222617
119	0x3fb40257	1.4063214
120	0x3f3cc777	0.7374186
121	0x3e81190c	0.25214422
122	0xbec5cb64	-0.38631737
123	0x4058d453	3.3879592
124	0xbe8ed512	-0.27896935
125	0x40146c39	2.3191054
126	0x3dc31c2a	0.09526856
127	0xbfdba020	-1.7158241
128	0xbfd75b5e	-1.6824758
129	0xbf35162b	-0.7073695
130	0xbfa5317d	-1.2905728
131	0xc0063b83	-2.0973823
132	0x3f51ca27	0.81949085
133	0x400a3890	2.1597023
134	0xbed3eb71	-0.41390565
135	0xbf8b24a9	-1.0870563
136	0xbef92bb3	-0.48666152
137	0x3d990e5c	0.07473442
138	0xbfd1770d	-1.6364456
139	0xbf5fbdb9	-0.8739887
140	0xc0007508	-2.007143
141	0xbf8919fb	-1.0711054
142	0x3fa02e67	1.2514161
143	0x3f8081ad	1.0039574
144	0x3f137b34	0.5760987
145	0x3f8a1835	1.0788637
146	0x3f60745e	0.8767756
147	0xbe60749d	-0.21919484
148	0x3fcdc06e	1.607435
149	0x40500bfd	3.2507317
150	0xbf80c3b5	-1.0059725
151	0x3fdf2c62	1.743542
152	0xbf0404bc	-0.51569724
153	0x3ff149d5	1.8850657
154	0x3ec6e2d4	0.3884493
155	0x3f9b52b1	1.213461
156	0xbf8c9e2b	-1.0985769
157	0x3f2eb079	0.68238026
158	0xbf757285	-0.9587787
159	0x3fc17403	1.5113529
160	0x3f627a86	0.88468206
161	0x3fe51096	1.7895687
162	0x3f874e69	1.0570804
163	0xbe60351f	-0.21895264
164	0x401ee5be	2.4827724
165	0x3f640c8c	0.89081645
166	0x4002088d	2.031772
167	0x3f8f0626	1.1173751
168	0x405e68b6	3.475141
169	0xbf1431fe	-0.5788878
170	0x3fb2f16f	1.397993
171	0xc01ce27b	-2.4513233
172	0x3f09b1bf	0.53786844
173	0x3f8015e1	1.0006677
174	0xbfd28e5a	-1.6449692
175	0x3fc615f9	1.5475456
176	0x406c8803	3.6958015
177	0xbdd737d6	-0.10508697
178	0x3fe9125d	1.8208729
179	0x401a61b2	2.4122128
180	0x3ffdb62c	1.982122
181	0x403b1e84	2.9237375
182	0x3f97f961	1.1872979
183	0x3f5cb0c2	0.8620721
184	0xbfbf9e08	-1.4970102
185	0x3f8e00f5	1.1094042
186	0x3fbc1ad1	1.4695684
187	0x3f75a15a	0.9594933
188	0x3f9ccade	1.224941
189	0x3f577d35	0.84175426
190	0xbe21d55f	-0.15804051
191	0xbf400072	-0.7500068
192	0x3e6fcaea	0.2341725
193	0x4042f7b7	3.0463693
194	0x3e992386	0.29909915
195	0xbe8ba4a1	-0.2727404
196	0x40069b33	2.1032226
197	0xbfdd7434	-1.7301087
198	0xbf334a0e	-0.70034873
199	0x3eda8875	0.42682233
200	0x3fe7f86a	1.8122685
201	0xbff709cb	-1.9299864
202	0xc03c69af	-2.9439504
203	0xc01f167d	-2.4857476
204	0xc043e6b3	-3.0609558
205	0xbf456ee2	-0.7712232
206	0xc0078e37	-2.118055
207	0x3ce44d11	0.02786878
208	0x404067e2	3.0063405
209	0x3dd4d51c	0.1039221
210	0xbe9b112a	-0.30286533
211	0x3f0aeb86	0.5426563
212	0xbe4bb14e	-0.19891855
213	0xc0121844	-2.282731
214	0xc02dd1a3	-2.7159202
215	0xc018178f	-2.376438
216	0xbf1dbd0f	-0.61616606
217	0xbf8fca20	-1.1233559
218	0x3e51223c	0.20423216
219	0x3f58d2bb	0.8469655
220	0x401cbed1	2.4491465
221	0x40598ddd	3.3992836
222	0x3f8e41a2	1.111378
223	0x40189591	2.3841288
224	0x402a12f3	2.6574066
225	0xbf7e52c1	-0.9934502
226	0xbe81504f	-0.25256583
227	0xbf9f9804	-1.2468266
228	0xbebe1b35	-0.37130132
229	0x3ed8a7d7	0.42315552
230	0x3eecad64	0.46226037
231	0x3e6dd0ca	0.23224178
232	0x3e7d5dde	0.24742839
233	0xbf3cf46e	-0.7381047
234	0xbebd64be	-0.36990923
235	0xbf9e5b2b	-1.2371572
236	0xbf93c44c	-1.154428
237	0xbe66263e	-0.22475526
238	0xbfaa8bd2	-1.332392
239	0xbf80524f	-1.0025119
240	0x3f9395dc	1.1530108
241	0xbf2a5562	-0.66536534
242	0xbf8ba1ac	-1.0908713
243	0xbe8de71f	-0.27715394
244	0xbf99688f	-1.1985034
245	0xc0025a77	-2.0367715
246	0xbec754b1	-0.38931802
247	0x3eb26e40	0.3484974
248	0xc006eab8	-2.108076
249	0xbeebb04d	-0.46032944
250	0x3ee34ad1	0.44393018
251	0xbef1dbf7	-0.47238132
252	0xbf4d7271	-0.8025275
253	0x3e8a5836	0.27020425
254	0x3f87994b	1.0593656
255	0x402143b3	2.519757

generator.9.bias f4 [8]
0	0xc02e4efc	-2.7235708
1	0x41207888	10.029427
2	0xc01b1ace	-2.423511
3	0x3f0ba603	0.5455019
4	0xc06a4e4f	-3.6610296
5	0x3f0740de	0.52833354
6	0xc0a41d72	-5.1285944
7	0xc03cb3cb	-2.9484737

generator.11.weight f4 [8]
0	0x3e9f54dd	0.31119433
1	0x3f6f82c8	0.9355893
2	0x3f341190	0.703393
3	0x3f5b9692	0.8577663
4	0x3ef4d8fe	0.47821802
5	0x3f32c8d2	0.6983768
6	0x3d74ce61	0.05976713
7	0x3ef1fa50	0.47261286

generator.11.bias f4 [8]
0	0xc04c44ca	-3.1916986
1	0x3efa509e	0.4888963
2	0xbfb4790c	-1.409944
3	0x3f787589	0.97054344
4	0x3f22da02	0.63613904
5	0x3e542373	0.20716648
6	0xc06be7b0	-3.686016
7	0x3f92d381	1.1470796

generator.11.running_mean f4 [8]
0	0xc0637af7	-3.5543802
1	0x4128856c	10.532574
2	0x4192fca0	18.373352
3	0xbcf748a1	-0.030186
4	0xc0cf353a	-6.4752474
5	0xc034e946	-2.8267379
6	0xc024319d	-2.5655282
7	0xc07d26a2	-3.955483

generator.11.running_var f4 [8]
0	0x428e4104	71.12698
1	0x43630ff0	227.06226
2	0x43e6e1fa	461.76544
3	0x42b05061	88.15699
4	0x4299d887	76.922905
5	0x421f29ee	39.790947
6	0x42bd2723	94.57644
7	0x425ce489	55.22318

generator.12.weight f4 [8, 4, 3, 3]
0	0x3fa04209	1.2520152
1	0xbfc3ee96	-1.5307186
2	0x3f574e2f	0.84103674
3	0x3f53458a	0.82527983
4	0xc06fab4f	-3.7448308
5	0x402b83b8	2.6799145
6	0xbef953f1	-0.48696855
7	0xc0277203	-2.6163337
8	0x3f981f1e	1.1884496
9	0xbf95f491	-1.1715261
10	0x405d8cf5	3.4617283
11	0xbfc4c7df	-1.5373496
12	0xbfb7177d	-1.4304043
13	0x3f82e3be	1.0225751
14	0x3f9df724	1.2341046
15	0x3faa0500	1.3282776
16	0xc01ef68f	-2.4837987
17	0x3fa355f7	1.2760609
18	0x3d58065b	0.052740436
19	0x3ef77d22	0.48337656
20	0xbe806c39	-0.25082567
21	0xbe6909a2	-0.22757581
22	0x3f2915df	0.66049
23	0x3e0700cb	0.13183896
24	0x3deaa6a4	0.114575654
25	0xbe897633	-0.2684799
26	0x3e9563a8	0.29177594
27	0xbfe2fe79	-1.7733909
28	0x3f712690	0.94199467
29	0x3cb518da	0.022106577
30	0xc02f1ea7	-2.7362459
31	0x3fc6cadb	1.5530657
32	0xbe24e4c1	-0.16102888
33	0xbee6e569	-0.450969
34	0x3f36a7fd	0.7135008
35	0x3e0e46cf	0.13894199
36	0xbd981322	-0.07425524
37	0x3e5ecbc7	0.21757422
38	0x3ced9ccc	0.02900543
39	0xbd0d8366	-0.03454914
40	0x3e190dff	0.14946745
41	0x3d4e5b39	0.050379965
42	0x3e076864	0.13223416
43	0x3e987e70	0.29783964
44	0x3db32f21	0.087492235
45	0x3da03b33	0.07823791
46	0x3e913da2	0.28367335
47	0xbedc21d3	-0.42994556
48	0x3e9010c6	0.28137797
49	0x3f82f646	1.0231407
50	0x3d12657c	0.035741314
51	0xbadeaa43	-0.0016987998
52	0x3ed8af69	0.42321327
53	0x3e930710	0.28716326
54	0xc0159981	-2.3374941
55	0xc086bf56	-4.2108564
56	0xc003d289	-2.059725
57	0xc057eff9	-3.3740218
58	0xc0c7efee	-6.2480383
59	0xc00445ae	-2.066753
60	0xc01f4aee	-2.4889483
61	0xc0191dbe	-2.3924403
62	0x3eb586ae	0.35454315
63	0xbe486418	-0.19569433
64	0xbd3a68ad	-0.045509983
65	0x3d43c164	0.047791854
66	0x3e5ef918	0.21774709
67	0x3ed4831a	0.41506273
68	0xbd76bef8	-0.060240716
69	0x3e78d687	0.24300586
70	0x3d84f47f	0.064919464
71	0xbe053c06	-0.13011178
72	0xbf730709	-0.9493261
73	0xbef50d45	-0.47861686
74	0x3ee100c8	0.4394591
75	0x3ee9d33a	0.45668966
76	0x3fe78a75	1.8089129
77	0x3fa68bf0	1.3011456
78	0x3f415f55	0.7553609
79	0x40034c96	2.0515494
80	0x3f5b913e	0.85768497
81	0x3ec48f8e	0.38390774
82	0x3f0afc79	0.5429149
83	0xbf77b176	-0.9675516
84	0xbec4c611	-0.38432363
85	0x3f3dbc1a	0.74115145
86	0x3efa3d65	0.48874965
87	0xbfaf68fa	-1.3703911
88	0xbf92f29f	-1.1480292
89	0x3f914836	1.1350162
90	0x3e987fe3	0.2978507
91	0x3c4664db	0.012109007
92	0x3da331a7	0.07968455
93	0x3f588dd6	0.84591424
94	0x3fd01abf	1.6258162
95	0x3f3a791a	0.72841036
96	0x3e25727d	0.16156955
97	0x3f9c7481	1.2223054
98	0x3f0a46fc	0.54014564
99	0x400fd26a	2.2472177
100	0x402f04a4	2.7346582
101	0x3ef61f15	0.4807059
102	0x3febd39c	1.8423953
103	0x400db60b	2.214236
104	0x3f75600c	0.9584968
105	0x3e1304b4	0.14357263
106	0x3e190ad4	0.14945537
107	0xbd532d14	-0.05155666
108	0xbed9e4c1	-0.42557338
109	0x3e1f25d4	0.15541774
110	0x3cb0725e	0.02153891
111	0x3e3a5e56	0.18200049
112	0xbf69883e	-0.91223514
113	0xbddc00a7	-0.10742312
114	0x3d171267	0.036882784
115	0x3e48325b	0.19550459
116	0x40887acc	4.26499
117	0x3f0c0783	0.5469896
118	0xbf14e9ab	-0.5816905
119	0x3e7b2c36	0.24528584
120	0xbed04d10	-0.40683794
121	0x4083fcce	4.12461
122	0xc0375aeb	-2.8649242
123	0xbfd26031	-1.6435605
124	0xc002c880	-2.0434875
125	0x400c66ac	2.1937666
126	0x3f112257	0.56693023
127	0xbbeea141	-0.0072824066
128	0x3e9f98ec	0.31171358
129	0x3f8b2bb5	1.0872713
130	0x3e6b7eae	0.22997543
131	0x3ea11a8d	0.3146557
132	0x3ed23324	0.41054642
133	0x3f8e6eae	1.1127527
134	0x3fa101be	1.2578657
135	0x3f73b99b	0.95205086
136	0x3e471ca8	0.19444525
137	0x3f09118a	0.5354239
138	0x3da5d084	0.08096412
139	0x401cf481	2.4524233
140	0x40109695	2.2591908
141	0xbc446a3b	-0.011988218
142	0x3f2cdc4f	0.67523664
143	0xbf740640	-0.95322037
144	0x3f6412e7	0.8909134
145	0x3fe0344d	1.7515961
146	0x3f265936	0.64979875
147	0xbe98b2de	-0.29823965
148	0xc0179997	-2.3687494
149	0xc0320373	-2.7814605
150	0xbf069c62	-0.5258237
151	0xbed98eb1	-0.42491677
152	0xbf2c5145	-0.6731151
153	0x3d8582cb	0.065190874
154	0x3fa35d1e	1.2762792
155	0x3f9b4649	1.2130824
156	0x3f892971	1.0715772
157	0xbfec4d4d	-1.846109
158	0xbfe908de	-1.8205831
159	0x3df57e33	0.11986961
160	0x3e0f44f9	0.13991155
161	0xbf072925	-0.52797157
162	0xbeb138ff	-0.34613797
163	0x3ea56fa4	0.32311738
164	0x3e338e8c	0.17534846
165	0x3ea283c3	0.3174115
166	0x3ed759d5	0.42060724
167	0x3e8268af	0.25470492
168	0x3e892c79	0.26791742
169	0x3f47070d	0.77745134
170	0xbef1b167	-0.4720566
171	0xbffdc531	-1.9825803
172	0xc030fa6f	-2.7652853
173	0xbfbab397	-1.4586056
174	0xbfc23abc	-1.5174174
175	0xbff6d486	-1.9283607
176	0xbf12f772	-0.5740882
177	0x3f43a039	0.76416355
178	0x3f045659	0.51694256
179	0x3f002207	0.5005192
180	0x3ccc7280	0.024956942
181	0xbdaa6c6a	-0.083214596
182	0x3e00f271	0.12592484
183	0xbf934711	-1.1506063
184	0xbf8509b4	-1.0393586
185	0x3df8c974	0.12147799
186	0x3fe23a6d	1.767408
187	0x40259bcf	2.5876348
188	0x3fa9f442	1.3277667
189	0xbec9126c	-0.39271867
190	0x3e3be733	0.18349914
191	0x3cbf6d4c	0.023367546
192	0x3f101593	0.5628292
193	0xbf853699	-1.0407287
194	0xbff82ad5	-1.9388071
195	0xbf438556	-0.7637533
196	0x3fa60bd9	1.2972366
197	0x3fb59ea1	1.4189035
198	0x3eae3ca3	0.34030637
199	0x3ec63e33	0.3871933
200	0x3f5096a2	0.8147985
201	0xbe85d8be	-0.26141924
202	0x3e2f2b49	0.17106356
203	0x3e8378ab	0.25678
204	0x3e2427eb	0.16030852
205	0x3f41dba7	0.7572579
206	0x3eba3f4f	0.36376426
207	0x3e6c946d	0.23103495
208	0x3f262f1e	0.64915645
209	0x3ea90ec5	0.3301908
210	0x401fb649	2.4955008
211	0x403dea7e	2.9674373
212	0x3f6af84c	0.9178512
213	0x3e99d3ff	0.30044553
214	0xbce91d8f	-0.028456477
215	0xbec20ad3	-0.37898883
216	0xbef2816e	-0.47364372
217	0x3fb789aa	1.4338887
218	0xbf8bf550	-1.0934238
219	0xbf5d2aa9	-0.8639322
220	0x41032009	8.195321
221	0xc02dc948	-2.7154102
222	0xbce65e60	-0.028121173
223	0x3fcf088d	1.6174484
224	0xbf404b8b	-0.7511527
225	0x3f096c14	0.5368054
226	0xbfd5abb9	-1.669303
227	0x3f42feb4	0.76169896
228	0x3fdc5a82	1.7215121
229	0x40d85521	6.7603917
230	0xbff4f8da	-1.9138443
231	0x3e867b95	0.2626616
232	0x40465f1e	3.0995555
233	0xc0272f66	-2.612268
234	0xbf09ec6c	-0.53876376
235	0xbda65654	-0.081219345
236	0xbf004b53	-0.50114936
237	0xbf24d23a	-0.6438328
238	0x3dbf3777	0.09336751
239	0x3e2757d4	0.16342098
240	0x3ddd3ad4	0.10802236
241	0xbeb1c1d4	-0.34718192
242	0xbf1e35fa	-0.6180111
243	0x3e20aed5	0.15691693
244	0xbfa53662	-1.2907221
245	0xbecbe3f7	-0.3982236
246	0x3fea0f13	1.828585
247	0x409ff623	4.998796
248	0x3f03911e	0.51393306
249	0x3e65cf7d	0.22442432
250	0xbd69344b	-0.056934636
251	0xbde2cfb5	-0.11074773
252	0xbfe43b61	-1.7830621
253	0xbf9bd4eb	-1.2174352
254	0xbe06abe3	-0.13151507
255	0x3fa85fff	1.3154296

generator.12.bias f4 [4]
0	0xc1426ec3	-12.152041
1	0x3f52cf5e	0.8234767
2	0x41c9bb7c	25.216545
3	0xc1a353b2	-20.415867

generator.14.weight f4 [4]
0	0x3e0ce36e	0.13758633
1	0x3d9fb836	0.07798807
2	0xbd817fba	-0.0632319
3	0x3e4cff6b	0.20019309

generator.14.bias f4 [4]
0	0x3d29b2a5	0.041430134
1	0x3b65e610	0.0035079755
2	0xbc43dbdb	-0.011954273
3	0x3ded19fd	0.115772225

generator.14.running_mean f4 [4]
0	0xc0cd27a5	-6.4110894
1	0xc0b8e750	-5.7782364
2	0x418c783c	17.558708
3	0xc10c570e	-8.771254

generator.14.running_var f4 [4]
0	0x3eec409b	0.4614304
1	0x3f346631	0.7046843
2	0x424f6b32	51.854683
3	0x3f375c5b	0.716253

generator.15.weight f4 [4, 3, 3, 3]
0	0x3e4af459	0.19819774
1	0x3f53e2fd	0.8276823
2	0x3dde318a	0.108492926
3	0x3f89bb3b	1.0760263
4	0x402ef4f7	2.7337015
5	0x3f1953ef	0.598937
6	0x3e86ebb2	0.26351696
7	0x3f2590b9	0.64673954
8	0x3ead533c	0.33852565
9	0x3e4da8f5	0.20083983
10	0x3ef7e950	0.4842019
11	0xbe114243	-0.14185433
12	0x3f5fd6aa	0.87436926
13	0x3fd85972	1.6902297
14	0x3f359574	0.7093117
15	0x3dee9666	0.1164978
16	0x3f200789	0.625115
17	0x3ee5d31f	0.44887635
18	0x3e943853	0.28949222
19	0x3f4c98c6	0.79920614
20	0x3d8e6330	0.06952512
21	0x3f6b3517	0.91877884
22	0x3fe1dede	1.7646139
23	0x3f4e82ba	0.8066822
24	0x3d74bf26	0.059752606
25	0x3ef186e3	0.47173223
26	0x3ec2a1ec	0.38014162
27	0x3f203c2d	0.6259182
28	0x3f8d97b3	1.106192
29	0x3f1680db	0.5879037
30	0x3f5571f4	0.83377004
31	0xbfbcdbf1	-1.4754621
32	0x3eb34fc5	0.35021797
33	0xbf10c204	-0.56546044
34	0xbf703426	-0.9382957
35	0xbe2f06f8	-0.17092502
36	0x3f2ef1c7	0.6833767
37	0x3fc57345	1.5425802
38	0x3f635715	0.8880475
39	0x3a92a181	0.0011187048
40	0x3e9ef9ed	0.31050053
41	0x3f0a68c3	0.54066104
42	0xbf42837a	-0.7598187
43	0xbee4aa2b	-0.44661078
44	0x3f2d2a7a	0.6764294
45	0x3f7a9343	0.97880954
46	0x3f5e0aca	0.8673521
47	0x3ead5ca1	0.33859733
48	0x3e4c0a23	0.19925742
49	0xbdda5716	-0.106611416
50	0x3dcc66d0	0.099805474
51	0xbf51b90d	-0.8192299
52	0xbf08c160	-0.53420067
53	0x3eec40a0	0.46143055
54	0x3de5cc9a	0.11220665
55	0xbf8fd771	-1.1237622
56	0xbf94bf84	-1.1620946
57	0xbe9fd5c2	-0.31217772
58	0xc01b6e2a	-2.4285989
59	0xbfb356b9	-1.4010841
60	0xbf016c2d	-0.5055569
61	0xbfa10592	-1.2579825
62	0xbf14ea3b	-0.5816991
63	0x3e840f9e	0.25793165
64	0xbf26369e	-0.6492709
65	0xbf7073e0	-0.9392681
66	0xbe835b9f	-0.2565584
67	0xbf8e24c1	-1.1104966
68	0xbf374c84	-0.7160113
69	0xbe9a933e	-0.30190462
70	0xbf13458d	-0.57528
71	0xbcd1e029	-0.025619583
72	0x3df86279	0.12128157
73	0x3f8e3767	1.1110657
74	0x3f4e6bd6	0.80633295
75	0x3f091d7a	0.535606
76	0x3fe2dabf	1.7723006
77	0x3fc11aaf	1.5086268
78	0x3f113d7a	0.5673443
79	0x3f06d35b	0.5266625
80	0x3e9f9d3c	0.31174648
81	0x3e942db1	0.2894111
82	0x3f44fef7	0.76951545
83	0x3e4b6687	0.1986333
84	0x3f175ed7	0.5912909
85	0x3fedccb7	1.8578099
86	0x3f972818	1.1809111
87	0x3e97d100	0.29651642
88	0x3fbc6e28	1.4721117
89	0x3fcb24f5	1.5870653
90	0x3e807684	0.2509042
91	0x3f0508e6	0.519667
92	0x3e27c07e	0.16382024
93	0x3f1bee3c	0.6091039
94	0x3fb8a306	1.4424751
95	0x3f85ffdd	1.0468708
96	0x3e9fe6e9	0.31230858
97	0x3f99cb7c	1.2015224
98	0x3fbb6d5d	1.464275
99	0x3d346db8	0.04404995
100	0x3ed6905c	0.41907012
101	0x3e776ee4	0.24163395
102	0x3ee7e771	0.45293763
103	0x3faed6ed	1.365934
104	0x3f818dbf	1.0121382
105	0x3eb181f4	0.3466946
106	0x3f8f1549	1.1178371
107	0x3f949bd9	1.1610061

generator.15.bias f4 [3]
0	0x3ee0d6d2	0.43913895
1	0x3eccc738	0.39995742
2	0x3ebbf586	0.36710757

discriminator.0.weight f4 [4, 3, 3, 3]
0	0xbea42e61	-0.32066634
1	0xbf1ebd98	-0.6200805
2	0x3deb8499	0.114999
3	0x3eac3f5f	0.33642098
4	0x3e49d90c	0.19711703
5	0x3e6884f3	0.22706966
6	0x3ee7326e	0.45155662
7	0x3f374b05	0.71598846
8	0xbeaf03fa	-0.3418272
9	0xbf013dcb	-0.50484914
10	0xbfa82101	-1.3135072
11	0x3eba17f5	0.36346403
12	0x3e08de9d	0.1336617
13	0x3f75272d	0.957629
14	0xbf12a6a5	-0.5728553
15	0x3f77941e	0.96710384
16	0x3e950fc6	0.29113597
17	0x3d4322ef	0.047640737
18	0xbfbe97af	-1.489004
19	0x3f52eba1	0.8239079
20	0xbfa207df	-1.2658652
21	0x3ed9a914	0.4251181
22	0x3f16b77f	0.5887374
23	0xbc1cff4e	-0.009582354
24	0xbe8a4c07	-0.2701113
25	0x3eefd1e1	0.46839812
26	0xbfa9338a	-1.3218853
27	0xbec44e3e	-0.38340944
28	0x3eef146f	0.46695277
29	0xbe1285fb	-0.14308922
30	0x3dc3706b	0.095429264
31	0xbd9388cc	-0.07203826
32	0xbeaa507d	-0.33264533
33	0x3e78e05a	0.24304333
34	0xbf372ad1	-0.7154971
35	0x3efafbb4	0.4902016
36	0xbf25d5de	-0.6477946
37	0x3f818c02	1.0120852
38	0xbf1ea952	-0.6197711
39	0x3ecaab4a	0.39583808
40	0xbfb1af43	-1.3881611
41	0x3f69fda3	0.91402644
42	0xbde02763	-0.109450124
43	0x3e944ebc	0.2896632
44	0xbec2bdef	-0.38035533
45	0x3f40961c	0.7522905
46	0xbfb44823	-1.4084514
47	0x3f2f571e	0.68492305
48	0xbf2cc8cc	-0.6749389
49	0x3fa7a01e	1.3095739
50	0xbf30dd9b	-0.69088143
51	0xbea4cfd6	-0.32189816
52	0x3e819660	0.2531004
53	0xbd1b0853	-0.037849735
54	0x3ef07560	0.4696455
55	0x3e642878	0.22281063
56	0xbf5e889a	-0.8692719
57	0x3f8a08c0	1.078392
58	0x3ec7c8e0	0.39020443
59	0xbeb75e52	-0.35814148
60	0xbea01a4c	-0.31270063
61	0xbf08b36d	-0.5339878
62	0xbebfd5df	-0.37467858
63	0x3f3e7a99	0.7440582
64	0x3d745a30	0.059656322
65	0xbf699165	-0.9123748
66	0x3f8a0205	1.0781866
67	0x3f26da82	0.65177166
68	0xbef44dd1	-0.4771562
69	0xbec5f090	-0.38660097
70	0xbf1b9bb8	-0.6078448
71	0xbec2d60e	-0.38053936
72	0xbeb1dbaf	-0.34737918
73	0x3f54d738	0.831409
74	0xbeee5447	-0.46548674
75	0x3f4b76a7	0.79477924
76	0x3f9addc9	1.2098933
77	0xbe40bf97	-0.18823086
78	0xbf860a77	-1.0471944
79	0xbd7d442a	-0.061832584
80	0xbdedd739	-0.11613316
81	0x3f7d4f14	0.9894879
82	0xbc16ae78	-0.00919687
83	0xbc154b5a	-0.0091122035
84	0xbfdb799d	-1.7146488
85	0xbfaa5aa8	-1.3308916
86	0xbe7c2719	-0.2462429
87	0xbf13191d	-0.57460195
88	0xbf6c3340	-0.922657
89	0x3eb22182	0.3479119
90	0x3f0d22cc	0.5513122
91	0xbe8a6dd8	-0.2703693
92	0x3e5d4127	0.21606885
93	0xbfd41eda	-1.6571915
94	0xbf5752fe	-0.8411101
95	0xbf022f17	-0.50853103
96	0xc02612d4	-2.5948992
97	0xbf956e2d	-1.1674248
98	0x3f7db49c	0.99103713
99	0xbefae3e1	-0.49001983
100	0x3fa1d565	1.2643248
101	0xbee3b4b2	-0.44473797
102	0xbfba1bdb	-1.4539751
103	0xbf0fc7d9	-0.5616432
104	0x3f8aaa11	1.083315
105	0xbf717316	-0.9431623
106	0x3d9ca427	0.07648497
107	0xbe8a2ef7	-0.26988956

discriminator.0.bias f4 [4]
0	0xc09f8790	-4.985298
1	0xbfcc31a5	-1.595265
2	0x400016af	2.0013845
3	0x3e308e40	0.17241764

discriminator.2.weight f4 [4]
0	0x3f8fc1d9	1.1231033
1	0x3f74f5e7	0.9568772
2	0x3fa7330a	1.3062451
3	0x3fb0ffa6	1.3828018

discriminator.2.bias f4 [4]
0	0x3c882b87	0.016622318
1	0x3d94485b	0.07240363
2	0xbec402a0	-0.38283253
3	0x3e23db7d	0.16001697

discriminator.2.running_mean f4 [4]
0	0xbf85b1a3	-1.0444835
1	0xbed4c7a4	-0.41558564
2	0x3ff71600	1.9303589
3	0xbf7d3faf	-0.989253

discriminator.2.running_var f4 [4]
0	0x3cc9985a	0.02460878
1	0x3b0f55dd	0.0021871247
2	0x3ec1bfba	0.37841588
3	0x3e8ebee1	0.27880004
